{"class_name": "Model", "config": {"layers": [{"class_name": "InputLayer", "inbound_nodes": [], "name": "input_4", "config": {"sparse": false, "name": "input_4", "batch_input_shape": [null, 160, 320, 3], "input_dtype": "float32"}}, {"class_name": "Convolution2D", "inbound_nodes": [[["input_4", 0, 0]]], "name": "convolution2d_283", "config": {"trainable": false, "b_regularizer": null, "name": "convolution2d_283", "init": "glorot_uniform", "b_constraint": null, "subsample": [2, 2], "border_mode": "valid", "nb_filter": 32, "W_regularizer": null, "W_constraint": null, "activity_regularizer": null, "activation": "relu", "dim_ordering": "tf", "nb_row": 3, "bias": true, "nb_col": 3}}, {"class_name": "BatchNormalization", "inbound_nodes": [[["convolution2d_283", 0, 0]]], "name": "batchnormalization_285", "config": {"mode": 0, "gamma_regularizer": null, "momentum": 0.99, "name": "batchnormalization_285", "beta_regularizer": null, "trainable": false, "epsilon": 1e-05, "axis": 3}}, {"class_name": "Convolution2D", "inbound_nodes": [[["batchnormalization_285", 0, 0]]], "name": "convolution2d_284", "config": {"trainable": false, "b_regularizer": null, "name": "convolution2d_284", "init": "glorot_uniform", "b_constraint": null, "subsample": [1, 1], "border_mode": "valid", "nb_filter": 32, "W_regularizer": null, "W_constraint": null, "activity_regularizer": null, "activation": "relu", "dim_ordering": "tf", "nb_row": 3, "bias": true, "nb_col": 3}}, {"class_name": "BatchNormalization", "inbound_nodes": [[["convolution2d_284", 0, 0]]], "name": "batchnormalization_286", "config": {"mode": 0, "gamma_regularizer": null, "momentum": 0.99, "name": "batchnormalization_286", "beta_regularizer": null, "trainable": false, "epsilon": 1e-05, "axis": 3}}, {"class_name": "Convolution2D", "inbound_nodes": [[["batchnormalization_286", 0, 0]]], "name": "convolution2d_285", "config": {"trainable": false, "b_regularizer": null, "name": "convolution2d_285", "init": "glorot_uniform", "b_constraint": null, "subsample": [1, 1], "border_mode": "same", "nb_filter": 64, "W_regularizer": null, "W_constraint": null, "activity_regularizer": null, "activation": "relu", "dim_ordering": "tf", "nb_row": 3, "bias": true, "nb_col": 3}}, {"class_name": "BatchNormalization", "inbound_nodes": [[["convolution2d_285", 0, 0]]], "name": "batchnormalization_287", "config": {"mode": 0, "gamma_regularizer": null, "momentum": 0.99, "name": "batchnormalization_287", "beta_regularizer": null, "trainable": false, "epsilon": 1e-05, "axis": 3}}, {"class_name": "MaxPooling2D", "inbound_nodes": [[["batchnormalization_287", 0, 0]]], "name": "maxpooling2d_10", "config": {"pool_size": [3, 3], "trainable": false, "name": "maxpooling2d_10", "border_mode": "valid", "strides": [2, 2], "dim_ordering": "tf"}}, {"class_name": "Convolution2D", "inbound_nodes": [[["maxpooling2d_10", 0, 0]]], "name": "convolution2d_286", "config": {"trainable": false, "b_regularizer": null, "name": "convolution2d_286", "init": "glorot_uniform", "b_constraint": null, "subsample": [1, 1], "border_mode": "valid", "nb_filter": 80, "W_regularizer": null, "W_constraint": null, "activity_regularizer": null, "activation": "relu", "dim_ordering": "tf", "nb_row": 1, "bias": true, "nb_col": 1}}, {"class_name": "BatchNormalization", "inbound_nodes": [[["convolution2d_286", 0, 0]]], "name": "batchnormalization_288", "config": {"mode": 0, "gamma_regularizer": null, "momentum": 0.99, "name": "batchnormalization_288", "beta_regularizer": null, "trainable": false, "epsilon": 1e-05, "axis": 3}}, {"class_name": "Convolution2D", "inbound_nodes": [[["batchnormalization_288", 0, 0]]], "name": "convolution2d_287", "config": {"trainable": false, "b_regularizer": null, "name": "convolution2d_287", "init": "glorot_uniform", "b_constraint": null, "subsample": [1, 1], "border_mode": "valid", "nb_filter": 192, "W_regularizer": null, "W_constraint": null, "activity_regularizer": null, "activation": "relu", "dim_ordering": "tf", "nb_row": 3, "bias": true, "nb_col": 3}}, {"class_name": "BatchNormalization", "inbound_nodes": [[["convolution2d_287", 0, 0]]], "name": "batchnormalization_289", "config": {"mode": 0, "gamma_regularizer": null, "momentum": 0.99, "name": "batchnormalization_289", "beta_regularizer": null, "trainable": false, "epsilon": 1e-05, "axis": 3}}, {"class_name": "MaxPooling2D", "inbound_nodes": [[["batchnormalization_289", 0, 0]]], "name": "maxpooling2d_11", "config": {"pool_size": [3, 3], "trainable": false, "name": "maxpooling2d_11", "border_mode": "valid", "strides": [2, 2], "dim_ordering": "tf"}}, {"class_name": "Convolution2D", "inbound_nodes": [[["maxpooling2d_11", 0, 0]]], "name": "convolution2d_291", "config": {"trainable": false, "b_regularizer": null, "name": "convolution2d_291", "init": "glorot_uniform", "b_constraint": null, "subsample": [1, 1], "border_mode": "same", "nb_filter": 64, "W_regularizer": null, "W_constraint": null, "activity_regularizer": null, "activation": "relu", "dim_ordering": "tf", "nb_row": 1, "bias": true, "nb_col": 1}}, {"class_name": "BatchNormalization", "inbound_nodes": [[["convolution2d_291", 0, 0]]], "name": "batchnormalization_293", "config": {"mode": 0, "gamma_regularizer": null, "momentum": 0.99, "name": "batchnormalization_293", "beta_regularizer": null, "trainable": false, "epsilon": 1e-05, "axis": 3}}, {"class_name": "Convolution2D", "inbound_nodes": [[["maxpooling2d_11", 0, 0]]], "name": "convolution2d_289", "config": {"trainable": false, "b_regularizer": null, "name": "convolution2d_289", "init": "glorot_uniform", "b_constraint": null, "subsample": [1, 1], "border_mode": "same", "nb_filter": 48, "W_regularizer": null, "W_constraint": null, "activity_regularizer": null, "activation": "relu", "dim_ordering": "tf", "nb_row": 1, "bias": true, "nb_col": 1}}, {"class_name": "Convolution2D", "inbound_nodes": [[["batchnormalization_293", 0, 0]]], "name": "convolution2d_292", "config": {"trainable": false, "b_regularizer": null, "name": "convolution2d_292", "init": "glorot_uniform", "b_constraint": null, "subsample": [1, 1], "border_mode": "same", "nb_filter": 96, "W_regularizer": null, "W_constraint": null, "activity_regularizer": null, "activation": "relu", "dim_ordering": "tf", "nb_row": 3, "bias": true, "nb_col": 3}}, {"class_name": "BatchNormalization", "inbound_nodes": [[["convolution2d_289", 0, 0]]], "name": "batchnormalization_291", "config": {"mode": 0, "gamma_regularizer": null, "momentum": 0.99, "name": "batchnormalization_291", "beta_regularizer": null, "trainable": false, "epsilon": 1e-05, "axis": 3}}, {"class_name": "BatchNormalization", "inbound_nodes": [[["convolution2d_292", 0, 0]]], "name": "batchnormalization_294", "config": {"mode": 0, "gamma_regularizer": null, "momentum": 0.99, "name": "batchnormalization_294", "beta_regularizer": null, "trainable": false, "epsilon": 1e-05, "axis": 3}}, {"class_name": "AveragePooling2D", "inbound_nodes": [[["maxpooling2d_11", 0, 0]]], "name": "averagepooling2d_31", "config": {"pool_size": [3, 3], "trainable": false, "name": "averagepooling2d_31", "border_mode": "same", "strides": [1, 1], "dim_ordering": "tf"}}, {"class_name": "Convolution2D", "inbound_nodes": [[["maxpooling2d_11", 0, 0]]], "name": "convolution2d_288", "config": {"trainable": false, "b_regularizer": null, "name": "convolution2d_288", "init": "glorot_uniform", "b_constraint": null, "subsample": [1, 1], "border_mode": "same", "nb_filter": 64, "W_regularizer": null, "W_constraint": null, "activity_regularizer": null, "activation": "relu", "dim_ordering": "tf", "nb_row": 1, "bias": true, "nb_col": 1}}, {"class_name": "Convolution2D", "inbound_nodes": [[["batchnormalization_291", 0, 0]]], "name": "convolution2d_290", "config": {"trainable": false, "b_regularizer": null, "name": "convolution2d_290", "init": "glorot_uniform", "b_constraint": null, "subsample": [1, 1], "border_mode": "same", "nb_filter": 64, "W_regularizer": null, "W_constraint": null, "activity_regularizer": null, "activation": "relu", "dim_ordering": "tf", "nb_row": 5, "bias": true, "nb_col": 5}}, {"class_name": "Convolution2D", "inbound_nodes": [[["batchnormalization_294", 0, 0]]], "name": "convolution2d_293", "config": {"trainable": false, "b_regularizer": null, "name": "convolution2d_293", "init": "glorot_uniform", "b_constraint": null, "subsample": [1, 1], "border_mode": "same", "nb_filter": 96, "W_regularizer": null, "W_constraint": null, "activity_regularizer": null, "activation": "relu", "dim_ordering": "tf", "nb_row": 3, "bias": true, "nb_col": 3}}, {"class_name": "Convolution2D", "inbound_nodes": [[["averagepooling2d_31", 0, 0]]], "name": "convolution2d_294", "config": {"trainable": false, "b_regularizer": null, "name": "convolution2d_294", "init": "glorot_uniform", "b_constraint": null, "subsample": [1, 1], "border_mode": "same", "nb_filter": 32, "W_regularizer": null, "W_constraint": null, "activity_regularizer": null, "activation": "relu", "dim_ordering": "tf", "nb_row": 1, "bias": true, "nb_col": 1}}, {"class_name": "BatchNormalization", "inbound_nodes": [[["convolution2d_288", 0, 0]]], "name": "batchnormalization_290", "config": {"mode": 0, "gamma_regularizer": null, "momentum": 0.99, "name": "batchnormalization_290", "beta_regularizer": null, "trainable": false, "epsilon": 1e-05, "axis": 3}}, {"class_name": "BatchNormalization", "inbound_nodes": [[["convolution2d_290", 0, 0]]], "name": "batchnormalization_292", "config": {"mode": 0, "gamma_regularizer": null, "momentum": 0.99, "name": "batchnormalization_292", "beta_regularizer": null, "trainable": false, "epsilon": 1e-05, "axis": 3}}, {"class_name": "BatchNormalization", "inbound_nodes": [[["convolution2d_293", 0, 0]]], "name": "batchnormalization_295", "config": {"mode": 0, "gamma_regularizer": null, "momentum": 0.99, "name": "batchnormalization_295", "beta_regularizer": null, "trainable": false, "epsilon": 1e-05, "axis": 3}}, {"class_name": "BatchNormalization", "inbound_nodes": [[["convolution2d_294", 0, 0]]], "name": "batchnormalization_296", "config": {"mode": 0, "gamma_regularizer": null, "momentum": 0.99, "name": "batchnormalization_296", "beta_regularizer": null, "trainable": false, "epsilon": 1e-05, "axis": 3}}, {"class_name": "Merge", "inbound_nodes": [[["batchnormalization_290", 0, 0], ["batchnormalization_292", 0, 0], ["batchnormalization_295", 0, 0], ["batchnormalization_296", 0, 0]]], "name": "mixed0", "config": {"mode": "concat", "arguments": {}, "output_mask": null, "output_mask_type": "raw", "concat_axis": 3, "dot_axes": -1, "output_shape_type": "raw", "output_shape": null, "mode_type": "raw", "name": "mixed0"}}, {"class_name": "Convolution2D", "inbound_nodes": [[["mixed0", 0, 0]]], "name": "convolution2d_298", "config": {"trainable": false, "b_regularizer": null, "name": "convolution2d_298", "init": "glorot_uniform", "b_constraint": null, "subsample": [1, 1], "border_mode": "same", "nb_filter": 64, "W_regularizer": null, "W_constraint": null, "activity_regularizer": null, "activation": "relu", "dim_ordering": "tf", "nb_row": 1, "bias": true, "nb_col": 1}}, {"class_name": "BatchNormalization", "inbound_nodes": [[["convolution2d_298", 0, 0]]], "name": "batchnormalization_300", "config": {"mode": 0, "gamma_regularizer": null, "momentum": 0.99, "name": "batchnormalization_300", "beta_regularizer": null, "trainable": false, "epsilon": 1e-05, "axis": 3}}, {"class_name": "Convolution2D", "inbound_nodes": [[["mixed0", 0, 0]]], "name": "convolution2d_296", "config": {"trainable": false, "b_regularizer": null, "name": "convolution2d_296", "init": "glorot_uniform", "b_constraint": null, "subsample": [1, 1], "border_mode": "same", "nb_filter": 48, "W_regularizer": null, "W_constraint": null, "activity_regularizer": null, "activation": "relu", "dim_ordering": "tf", "nb_row": 1, "bias": true, "nb_col": 1}}, {"class_name": "Convolution2D", "inbound_nodes": [[["batchnormalization_300", 0, 0]]], "name": "convolution2d_299", "config": {"trainable": false, "b_regularizer": null, "name": "convolution2d_299", "init": "glorot_uniform", "b_constraint": null, "subsample": [1, 1], "border_mode": "same", "nb_filter": 96, "W_regularizer": null, "W_constraint": null, "activity_regularizer": null, "activation": "relu", "dim_ordering": "tf", "nb_row": 3, "bias": true, "nb_col": 3}}, {"class_name": "BatchNormalization", "inbound_nodes": [[["convolution2d_296", 0, 0]]], "name": "batchnormalization_298", "config": {"mode": 0, "gamma_regularizer": null, "momentum": 0.99, "name": "batchnormalization_298", "beta_regularizer": null, "trainable": false, "epsilon": 1e-05, "axis": 3}}, {"class_name": "BatchNormalization", "inbound_nodes": [[["convolution2d_299", 0, 0]]], "name": "batchnormalization_301", "config": {"mode": 0, "gamma_regularizer": null, "momentum": 0.99, "name": "batchnormalization_301", "beta_regularizer": null, "trainable": false, "epsilon": 1e-05, "axis": 3}}, {"class_name": "AveragePooling2D", "inbound_nodes": [[["mixed0", 0, 0]]], "name": "averagepooling2d_32", "config": {"pool_size": [3, 3], "trainable": false, "name": "averagepooling2d_32", "border_mode": "same", "strides": [1, 1], "dim_ordering": "tf"}}, {"class_name": "Convolution2D", "inbound_nodes": [[["mixed0", 0, 0]]], "name": "convolution2d_295", "config": {"trainable": false, "b_regularizer": null, "name": "convolution2d_295", "init": "glorot_uniform", "b_constraint": null, "subsample": [1, 1], "border_mode": "same", "nb_filter": 64, "W_regularizer": null, "W_constraint": null, "activity_regularizer": null, "activation": "relu", "dim_ordering": "tf", "nb_row": 1, "bias": true, "nb_col": 1}}, {"class_name": "Convolution2D", "inbound_nodes": [[["batchnormalization_298", 0, 0]]], "name": "convolution2d_297", "config": {"trainable": false, "b_regularizer": null, "name": "convolution2d_297", "init": "glorot_uniform", "b_constraint": null, "subsample": [1, 1], "border_mode": "same", "nb_filter": 64, "W_regularizer": null, "W_constraint": null, "activity_regularizer": null, "activation": "relu", "dim_ordering": "tf", "nb_row": 5, "bias": true, "nb_col": 5}}, {"class_name": "Convolution2D", "inbound_nodes": [[["batchnormalization_301", 0, 0]]], "name": "convolution2d_300", "config": {"trainable": false, "b_regularizer": null, "name": "convolution2d_300", "init": "glorot_uniform", "b_constraint": null, "subsample": [1, 1], "border_mode": "same", "nb_filter": 96, "W_regularizer": null, "W_constraint": null, "activity_regularizer": null, "activation": "relu", "dim_ordering": "tf", "nb_row": 3, "bias": true, "nb_col": 3}}, {"class_name": "Convolution2D", "inbound_nodes": [[["averagepooling2d_32", 0, 0]]], "name": "convolution2d_301", "config": {"trainable": false, "b_regularizer": null, "name": "convolution2d_301", "init": "glorot_uniform", "b_constraint": null, "subsample": [1, 1], "border_mode": "same", "nb_filter": 32, "W_regularizer": null, "W_constraint": null, "activity_regularizer": null, "activation": "relu", "dim_ordering": "tf", "nb_row": 1, "bias": true, "nb_col": 1}}, {"class_name": "BatchNormalization", "inbound_nodes": [[["convolution2d_295", 0, 0]]], "name": "batchnormalization_297", "config": {"mode": 0, "gamma_regularizer": null, "momentum": 0.99, "name": "batchnormalization_297", "beta_regularizer": null, "trainable": false, "epsilon": 1e-05, "axis": 3}}, {"class_name": "BatchNormalization", "inbound_nodes": [[["convolution2d_297", 0, 0]]], "name": "batchnormalization_299", "config": {"mode": 0, "gamma_regularizer": null, "momentum": 0.99, "name": "batchnormalization_299", "beta_regularizer": null, "trainable": false, "epsilon": 1e-05, "axis": 3}}, {"class_name": "BatchNormalization", "inbound_nodes": [[["convolution2d_300", 0, 0]]], "name": "batchnormalization_302", "config": {"mode": 0, "gamma_regularizer": null, "momentum": 0.99, "name": "batchnormalization_302", "beta_regularizer": null, "trainable": false, "epsilon": 1e-05, "axis": 3}}, {"class_name": "BatchNormalization", "inbound_nodes": [[["convolution2d_301", 0, 0]]], "name": "batchnormalization_303", "config": {"mode": 0, "gamma_regularizer": null, "momentum": 0.99, "name": "batchnormalization_303", "beta_regularizer": null, "trainable": false, "epsilon": 1e-05, "axis": 3}}, {"class_name": "Merge", "inbound_nodes": [[["batchnormalization_297", 0, 0], ["batchnormalization_299", 0, 0], ["batchnormalization_302", 0, 0], ["batchnormalization_303", 0, 0]]], "name": "mixed1", "config": {"mode": "concat", "arguments": {}, "output_mask": null, "output_mask_type": "raw", "concat_axis": 3, "dot_axes": -1, "output_shape_type": "raw", "output_shape": null, "mode_type": "raw", "name": "mixed1"}}, {"class_name": "Convolution2D", "inbound_nodes": [[["mixed1", 0, 0]]], "name": "convolution2d_305", "config": {"trainable": false, "b_regularizer": null, "name": "convolution2d_305", "init": "glorot_uniform", "b_constraint": null, "subsample": [1, 1], "border_mode": "same", "nb_filter": 64, "W_regularizer": null, "W_constraint": null, "activity_regularizer": null, "activation": "relu", "dim_ordering": "tf", "nb_row": 1, "bias": true, "nb_col": 1}}, {"class_name": "BatchNormalization", "inbound_nodes": [[["convolution2d_305", 0, 0]]], "name": "batchnormalization_307", "config": {"mode": 0, "gamma_regularizer": null, "momentum": 0.99, "name": "batchnormalization_307", "beta_regularizer": null, "trainable": false, "epsilon": 1e-05, "axis": 3}}, {"class_name": "Convolution2D", "inbound_nodes": [[["mixed1", 0, 0]]], "name": "convolution2d_303", "config": {"trainable": false, "b_regularizer": null, "name": "convolution2d_303", "init": "glorot_uniform", "b_constraint": null, "subsample": [1, 1], "border_mode": "same", "nb_filter": 48, "W_regularizer": null, "W_constraint": null, "activity_regularizer": null, "activation": "relu", "dim_ordering": "tf", "nb_row": 1, "bias": true, "nb_col": 1}}, {"class_name": "Convolution2D", "inbound_nodes": [[["batchnormalization_307", 0, 0]]], "name": "convolution2d_306", "config": {"trainable": false, "b_regularizer": null, "name": "convolution2d_306", "init": "glorot_uniform", "b_constraint": null, "subsample": [1, 1], "border_mode": "same", "nb_filter": 96, "W_regularizer": null, "W_constraint": null, "activity_regularizer": null, "activation": "relu", "dim_ordering": "tf", "nb_row": 3, "bias": true, "nb_col": 3}}, {"class_name": "BatchNormalization", "inbound_nodes": [[["convolution2d_303", 0, 0]]], "name": "batchnormalization_305", "config": {"mode": 0, "gamma_regularizer": null, "momentum": 0.99, "name": "batchnormalization_305", "beta_regularizer": null, "trainable": false, "epsilon": 1e-05, "axis": 3}}, {"class_name": "BatchNormalization", "inbound_nodes": [[["convolution2d_306", 0, 0]]], "name": "batchnormalization_308", "config": {"mode": 0, "gamma_regularizer": null, "momentum": 0.99, "name": "batchnormalization_308", "beta_regularizer": null, "trainable": false, "epsilon": 1e-05, "axis": 3}}, {"class_name": "AveragePooling2D", "inbound_nodes": [[["mixed1", 0, 0]]], "name": "averagepooling2d_33", "config": {"pool_size": [3, 3], "trainable": false, "name": "averagepooling2d_33", "border_mode": "same", "strides": [1, 1], "dim_ordering": "tf"}}, {"class_name": "Convolution2D", "inbound_nodes": [[["mixed1", 0, 0]]], "name": "convolution2d_302", "config": {"trainable": false, "b_regularizer": null, "name": "convolution2d_302", "init": "glorot_uniform", "b_constraint": null, "subsample": [1, 1], "border_mode": "same", "nb_filter": 64, "W_regularizer": null, "W_constraint": null, "activity_regularizer": null, "activation": "relu", "dim_ordering": "tf", "nb_row": 1, "bias": true, "nb_col": 1}}, {"class_name": "Convolution2D", "inbound_nodes": [[["batchnormalization_305", 0, 0]]], "name": "convolution2d_304", "config": {"trainable": false, "b_regularizer": null, "name": "convolution2d_304", "init": "glorot_uniform", "b_constraint": null, "subsample": [1, 1], "border_mode": "same", "nb_filter": 64, "W_regularizer": null, "W_constraint": null, "activity_regularizer": null, "activation": "relu", "dim_ordering": "tf", "nb_row": 5, "bias": true, "nb_col": 5}}, {"class_name": "Convolution2D", "inbound_nodes": [[["batchnormalization_308", 0, 0]]], "name": "convolution2d_307", "config": {"trainable": false, "b_regularizer": null, "name": "convolution2d_307", "init": "glorot_uniform", "b_constraint": null, "subsample": [1, 1], "border_mode": "same", "nb_filter": 96, "W_regularizer": null, "W_constraint": null, "activity_regularizer": null, "activation": "relu", "dim_ordering": "tf", "nb_row": 3, "bias": true, "nb_col": 3}}, {"class_name": "Convolution2D", "inbound_nodes": [[["averagepooling2d_33", 0, 0]]], "name": "convolution2d_308", "config": {"trainable": false, "b_regularizer": null, "name": "convolution2d_308", "init": "glorot_uniform", "b_constraint": null, "subsample": [1, 1], "border_mode": "same", "nb_filter": 32, "W_regularizer": null, "W_constraint": null, "activity_regularizer": null, "activation": "relu", "dim_ordering": "tf", "nb_row": 1, "bias": true, "nb_col": 1}}, {"class_name": "BatchNormalization", "inbound_nodes": [[["convolution2d_302", 0, 0]]], "name": "batchnormalization_304", "config": {"mode": 0, "gamma_regularizer": null, "momentum": 0.99, "name": "batchnormalization_304", "beta_regularizer": null, "trainable": false, "epsilon": 1e-05, "axis": 3}}, {"class_name": "BatchNormalization", "inbound_nodes": [[["convolution2d_304", 0, 0]]], "name": "batchnormalization_306", "config": {"mode": 0, "gamma_regularizer": null, "momentum": 0.99, "name": "batchnormalization_306", "beta_regularizer": null, "trainable": false, "epsilon": 1e-05, "axis": 3}}, {"class_name": "BatchNormalization", "inbound_nodes": [[["convolution2d_307", 0, 0]]], "name": "batchnormalization_309", "config": {"mode": 0, "gamma_regularizer": null, "momentum": 0.99, "name": "batchnormalization_309", "beta_regularizer": null, "trainable": false, "epsilon": 1e-05, "axis": 3}}, {"class_name": "BatchNormalization", "inbound_nodes": [[["convolution2d_308", 0, 0]]], "name": "batchnormalization_310", "config": {"mode": 0, "gamma_regularizer": null, "momentum": 0.99, "name": "batchnormalization_310", "beta_regularizer": null, "trainable": false, "epsilon": 1e-05, "axis": 3}}, {"class_name": "Merge", "inbound_nodes": [[["batchnormalization_304", 0, 0], ["batchnormalization_306", 0, 0], ["batchnormalization_309", 0, 0], ["batchnormalization_310", 0, 0]]], "name": "mixed2", "config": {"mode": "concat", "arguments": {}, "output_mask": null, "output_mask_type": "raw", "concat_axis": 3, "dot_axes": -1, "output_shape_type": "raw", "output_shape": null, "mode_type": "raw", "name": "mixed2"}}, {"class_name": "Convolution2D", "inbound_nodes": [[["mixed2", 0, 0]]], "name": "convolution2d_310", "config": {"trainable": false, "b_regularizer": null, "name": "convolution2d_310", "init": "glorot_uniform", "b_constraint": null, "subsample": [1, 1], "border_mode": "same", "nb_filter": 64, "W_regularizer": null, "W_constraint": null, "activity_regularizer": null, "activation": "relu", "dim_ordering": "tf", "nb_row": 1, "bias": true, "nb_col": 1}}, {"class_name": "BatchNormalization", "inbound_nodes": [[["convolution2d_310", 0, 0]]], "name": "batchnormalization_312", "config": {"mode": 0, "gamma_regularizer": null, "momentum": 0.99, "name": "batchnormalization_312", "beta_regularizer": null, "trainable": false, "epsilon": 1e-05, "axis": 3}}, {"class_name": "Convolution2D", "inbound_nodes": [[["batchnormalization_312", 0, 0]]], "name": "convolution2d_311", "config": {"trainable": false, "b_regularizer": null, "name": "convolution2d_311", "init": "glorot_uniform", "b_constraint": null, "subsample": [1, 1], "border_mode": "same", "nb_filter": 96, "W_regularizer": null, "W_constraint": null, "activity_regularizer": null, "activation": "relu", "dim_ordering": "tf", "nb_row": 3, "bias": true, "nb_col": 3}}, {"class_name": "BatchNormalization", "inbound_nodes": [[["convolution2d_311", 0, 0]]], "name": "batchnormalization_313", "config": {"mode": 0, "gamma_regularizer": null, "momentum": 0.99, "name": "batchnormalization_313", "beta_regularizer": null, "trainable": false, "epsilon": 1e-05, "axis": 3}}, {"class_name": "Convolution2D", "inbound_nodes": [[["mixed2", 0, 0]]], "name": "convolution2d_309", "config": {"trainable": false, "b_regularizer": null, "name": "convolution2d_309", "init": "glorot_uniform", "b_constraint": null, "subsample": [2, 2], "border_mode": "valid", "nb_filter": 384, "W_regularizer": null, "W_constraint": null, "activity_regularizer": null, "activation": "relu", "dim_ordering": "tf", "nb_row": 3, "bias": true, "nb_col": 3}}, {"class_name": "Convolution2D", "inbound_nodes": [[["batchnormalization_313", 0, 0]]], "name": "convolution2d_312", "config": {"trainable": false, "b_regularizer": null, "name": "convolution2d_312", "init": "glorot_uniform", "b_constraint": null, "subsample": [2, 2], "border_mode": "valid", "nb_filter": 96, "W_regularizer": null, "W_constraint": null, "activity_regularizer": null, "activation": "relu", "dim_ordering": "tf", "nb_row": 3, "bias": true, "nb_col": 3}}, {"class_name": "BatchNormalization", "inbound_nodes": [[["convolution2d_309", 0, 0]]], "name": "batchnormalization_311", "config": {"mode": 0, "gamma_regularizer": null, "momentum": 0.99, "name": "batchnormalization_311", "beta_regularizer": null, "trainable": false, "epsilon": 1e-05, "axis": 3}}, {"class_name": "BatchNormalization", "inbound_nodes": [[["convolution2d_312", 0, 0]]], "name": "batchnormalization_314", "config": {"mode": 0, "gamma_regularizer": null, "momentum": 0.99, "name": "batchnormalization_314", "beta_regularizer": null, "trainable": false, "epsilon": 1e-05, "axis": 3}}, {"class_name": "MaxPooling2D", "inbound_nodes": [[["mixed2", 0, 0]]], "name": "maxpooling2d_12", "config": {"pool_size": [3, 3], "trainable": false, "name": "maxpooling2d_12", "border_mode": "valid", "strides": [2, 2], "dim_ordering": "tf"}}, {"class_name": "Merge", "inbound_nodes": [[["batchnormalization_311", 0, 0], ["batchnormalization_314", 0, 0], ["maxpooling2d_12", 0, 0]]], "name": "mixed3", "config": {"mode": "concat", "arguments": {}, "output_mask": null, "output_mask_type": "raw", "concat_axis": 3, "dot_axes": -1, "output_shape_type": "raw", "output_shape": null, "mode_type": "raw", "name": "mixed3"}}, {"class_name": "Convolution2D", "inbound_nodes": [[["mixed3", 0, 0]]], "name": "convolution2d_317", "config": {"trainable": false, "b_regularizer": null, "name": "convolution2d_317", "init": "glorot_uniform", "b_constraint": null, "subsample": [1, 1], "border_mode": "same", "nb_filter": 128, "W_regularizer": null, "W_constraint": null, "activity_regularizer": null, "activation": "relu", "dim_ordering": "tf", "nb_row": 1, "bias": true, "nb_col": 1}}, {"class_name": "BatchNormalization", "inbound_nodes": [[["convolution2d_317", 0, 0]]], "name": "batchnormalization_319", "config": {"mode": 0, "gamma_regularizer": null, "momentum": 0.99, "name": "batchnormalization_319", "beta_regularizer": null, "trainable": false, "epsilon": 1e-05, "axis": 3}}, {"class_name": "Convolution2D", "inbound_nodes": [[["batchnormalization_319", 0, 0]]], "name": "convolution2d_318", "config": {"trainable": false, "b_regularizer": null, "name": "convolution2d_318", "init": "glorot_uniform", "b_constraint": null, "subsample": [1, 1], "border_mode": "same", "nb_filter": 128, "W_regularizer": null, "W_constraint": null, "activity_regularizer": null, "activation": "relu", "dim_ordering": "tf", "nb_row": 7, "bias": true, "nb_col": 1}}, {"class_name": "BatchNormalization", "inbound_nodes": [[["convolution2d_318", 0, 0]]], "name": "batchnormalization_320", "config": {"mode": 0, "gamma_regularizer": null, "momentum": 0.99, "name": "batchnormalization_320", "beta_regularizer": null, "trainable": false, "epsilon": 1e-05, "axis": 3}}, {"class_name": "Convolution2D", "inbound_nodes": [[["mixed3", 0, 0]]], "name": "convolution2d_314", "config": {"trainable": false, "b_regularizer": null, "name": "convolution2d_314", "init": "glorot_uniform", "b_constraint": null, "subsample": [1, 1], "border_mode": "same", "nb_filter": 128, "W_regularizer": null, "W_constraint": null, "activity_regularizer": null, "activation": "relu", "dim_ordering": "tf", "nb_row": 1, "bias": true, "nb_col": 1}}, {"class_name": "Convolution2D", "inbound_nodes": [[["batchnormalization_320", 0, 0]]], "name": "convolution2d_319", "config": {"trainable": false, "b_regularizer": null, "name": "convolution2d_319", "init": "glorot_uniform", "b_constraint": null, "subsample": [1, 1], "border_mode": "same", "nb_filter": 128, "W_regularizer": null, "W_constraint": null, "activity_regularizer": null, "activation": "relu", "dim_ordering": "tf", "nb_row": 1, "bias": true, "nb_col": 7}}, {"class_name": "BatchNormalization", "inbound_nodes": [[["convolution2d_314", 0, 0]]], "name": "batchnormalization_316", "config": {"mode": 0, "gamma_regularizer": null, "momentum": 0.99, "name": "batchnormalization_316", "beta_regularizer": null, "trainable": false, "epsilon": 1e-05, "axis": 3}}, {"class_name": "BatchNormalization", "inbound_nodes": [[["convolution2d_319", 0, 0]]], "name": "batchnormalization_321", "config": {"mode": 0, "gamma_regularizer": null, "momentum": 0.99, "name": "batchnormalization_321", "beta_regularizer": null, "trainable": false, "epsilon": 1e-05, "axis": 3}}, {"class_name": "Convolution2D", "inbound_nodes": [[["batchnormalization_316", 0, 0]]], "name": "convolution2d_315", "config": {"trainable": false, "b_regularizer": null, "name": "convolution2d_315", "init": "glorot_uniform", "b_constraint": null, "subsample": [1, 1], "border_mode": "same", "nb_filter": 128, "W_regularizer": null, "W_constraint": null, "activity_regularizer": null, "activation": "relu", "dim_ordering": "tf", "nb_row": 1, "bias": true, "nb_col": 7}}, {"class_name": "Convolution2D", "inbound_nodes": [[["batchnormalization_321", 0, 0]]], "name": "convolution2d_320", "config": {"trainable": false, "b_regularizer": null, "name": "convolution2d_320", "init": "glorot_uniform", "b_constraint": null, "subsample": [1, 1], "border_mode": "same", "nb_filter": 128, "W_regularizer": null, "W_constraint": null, "activity_regularizer": null, "activation": "relu", "dim_ordering": "tf", "nb_row": 7, "bias": true, "nb_col": 1}}, {"class_name": "BatchNormalization", "inbound_nodes": [[["convolution2d_315", 0, 0]]], "name": "batchnormalization_317", "config": {"mode": 0, "gamma_regularizer": null, "momentum": 0.99, "name": "batchnormalization_317", "beta_regularizer": null, "trainable": false, "epsilon": 1e-05, "axis": 3}}, {"class_name": "BatchNormalization", "inbound_nodes": [[["convolution2d_320", 0, 0]]], "name": "batchnormalization_322", "config": {"mode": 0, "gamma_regularizer": null, "momentum": 0.99, "name": "batchnormalization_322", "beta_regularizer": null, "trainable": false, "epsilon": 1e-05, "axis": 3}}, {"class_name": "AveragePooling2D", "inbound_nodes": [[["mixed3", 0, 0]]], "name": "averagepooling2d_34", "config": {"pool_size": [3, 3], "trainable": false, "name": "averagepooling2d_34", "border_mode": "same", "strides": [1, 1], "dim_ordering": "tf"}}, {"class_name": "Convolution2D", "inbound_nodes": [[["mixed3", 0, 0]]], "name": "convolution2d_313", "config": {"trainable": false, "b_regularizer": null, "name": "convolution2d_313", "init": "glorot_uniform", "b_constraint": null, "subsample": [1, 1], "border_mode": "same", "nb_filter": 192, "W_regularizer": null, "W_constraint": null, "activity_regularizer": null, "activation": "relu", "dim_ordering": "tf", "nb_row": 1, "bias": true, "nb_col": 1}}, {"class_name": "Convolution2D", "inbound_nodes": [[["batchnormalization_317", 0, 0]]], "name": "convolution2d_316", "config": {"trainable": false, "b_regularizer": null, "name": "convolution2d_316", "init": "glorot_uniform", "b_constraint": null, "subsample": [1, 1], "border_mode": "same", "nb_filter": 192, "W_regularizer": null, "W_constraint": null, "activity_regularizer": null, "activation": "relu", "dim_ordering": "tf", "nb_row": 7, "bias": true, "nb_col": 1}}, {"class_name": "Convolution2D", "inbound_nodes": [[["batchnormalization_322", 0, 0]]], "name": "convolution2d_321", "config": {"trainable": false, "b_regularizer": null, "name": "convolution2d_321", "init": "glorot_uniform", "b_constraint": null, "subsample": [1, 1], "border_mode": "same", "nb_filter": 192, "W_regularizer": null, "W_constraint": null, "activity_regularizer": null, "activation": "relu", "dim_ordering": "tf", "nb_row": 1, "bias": true, "nb_col": 7}}, {"class_name": "Convolution2D", "inbound_nodes": [[["averagepooling2d_34", 0, 0]]], "name": "convolution2d_322", "config": {"trainable": false, "b_regularizer": null, "name": "convolution2d_322", "init": "glorot_uniform", "b_constraint": null, "subsample": [1, 1], "border_mode": "same", "nb_filter": 192, "W_regularizer": null, "W_constraint": null, "activity_regularizer": null, "activation": "relu", "dim_ordering": "tf", "nb_row": 1, "bias": true, "nb_col": 1}}, {"class_name": "BatchNormalization", "inbound_nodes": [[["convolution2d_313", 0, 0]]], "name": "batchnormalization_315", "config": {"mode": 0, "gamma_regularizer": null, "momentum": 0.99, "name": "batchnormalization_315", "beta_regularizer": null, "trainable": false, "epsilon": 1e-05, "axis": 3}}, {"class_name": "BatchNormalization", "inbound_nodes": [[["convolution2d_316", 0, 0]]], "name": "batchnormalization_318", "config": {"mode": 0, "gamma_regularizer": null, "momentum": 0.99, "name": "batchnormalization_318", "beta_regularizer": null, "trainable": false, "epsilon": 1e-05, "axis": 3}}, {"class_name": "BatchNormalization", "inbound_nodes": [[["convolution2d_321", 0, 0]]], "name": "batchnormalization_323", "config": {"mode": 0, "gamma_regularizer": null, "momentum": 0.99, "name": "batchnormalization_323", "beta_regularizer": null, "trainable": false, "epsilon": 1e-05, "axis": 3}}, {"class_name": "BatchNormalization", "inbound_nodes": [[["convolution2d_322", 0, 0]]], "name": "batchnormalization_324", "config": {"mode": 0, "gamma_regularizer": null, "momentum": 0.99, "name": "batchnormalization_324", "beta_regularizer": null, "trainable": false, "epsilon": 1e-05, "axis": 3}}, {"class_name": "Merge", "inbound_nodes": [[["batchnormalization_315", 0, 0], ["batchnormalization_318", 0, 0], ["batchnormalization_323", 0, 0], ["batchnormalization_324", 0, 0]]], "name": "mixed4", "config": {"mode": "concat", "arguments": {}, "output_mask": null, "output_mask_type": "raw", "concat_axis": 3, "dot_axes": -1, "output_shape_type": "raw", "output_shape": null, "mode_type": "raw", "name": "mixed4"}}, {"class_name": "Convolution2D", "inbound_nodes": [[["mixed4", 0, 0]]], "name": "convolution2d_327", "config": {"trainable": false, "b_regularizer": null, "name": "convolution2d_327", "init": "glorot_uniform", "b_constraint": null, "subsample": [1, 1], "border_mode": "same", "nb_filter": 160, "W_regularizer": null, "W_constraint": null, "activity_regularizer": null, "activation": "relu", "dim_ordering": "tf", "nb_row": 1, "bias": true, "nb_col": 1}}, {"class_name": "BatchNormalization", "inbound_nodes": [[["convolution2d_327", 0, 0]]], "name": "batchnormalization_329", "config": {"mode": 0, "gamma_regularizer": null, "momentum": 0.99, "name": "batchnormalization_329", "beta_regularizer": null, "trainable": false, "epsilon": 1e-05, "axis": 3}}, {"class_name": "Convolution2D", "inbound_nodes": [[["batchnormalization_329", 0, 0]]], "name": "convolution2d_328", "config": {"trainable": false, "b_regularizer": null, "name": "convolution2d_328", "init": "glorot_uniform", "b_constraint": null, "subsample": [1, 1], "border_mode": "same", "nb_filter": 160, "W_regularizer": null, "W_constraint": null, "activity_regularizer": null, "activation": "relu", "dim_ordering": "tf", "nb_row": 7, "bias": true, "nb_col": 1}}, {"class_name": "BatchNormalization", "inbound_nodes": [[["convolution2d_328", 0, 0]]], "name": "batchnormalization_330", "config": {"mode": 0, "gamma_regularizer": null, "momentum": 0.99, "name": "batchnormalization_330", "beta_regularizer": null, "trainable": false, "epsilon": 1e-05, "axis": 3}}, {"class_name": "Convolution2D", "inbound_nodes": [[["mixed4", 0, 0]]], "name": "convolution2d_324", "config": {"trainable": false, "b_regularizer": null, "name": "convolution2d_324", "init": "glorot_uniform", "b_constraint": null, "subsample": [1, 1], "border_mode": "same", "nb_filter": 160, "W_regularizer": null, "W_constraint": null, "activity_regularizer": null, "activation": "relu", "dim_ordering": "tf", "nb_row": 1, "bias": true, "nb_col": 1}}, {"class_name": "Convolution2D", "inbound_nodes": [[["batchnormalization_330", 0, 0]]], "name": "convolution2d_329", "config": {"trainable": false, "b_regularizer": null, "name": "convolution2d_329", "init": "glorot_uniform", "b_constraint": null, "subsample": [1, 1], "border_mode": "same", "nb_filter": 160, "W_regularizer": null, "W_constraint": null, "activity_regularizer": null, "activation": "relu", "dim_ordering": "tf", "nb_row": 1, "bias": true, "nb_col": 7}}, {"class_name": "BatchNormalization", "inbound_nodes": [[["convolution2d_324", 0, 0]]], "name": "batchnormalization_326", "config": {"mode": 0, "gamma_regularizer": null, "momentum": 0.99, "name": "batchnormalization_326", "beta_regularizer": null, "trainable": false, "epsilon": 1e-05, "axis": 3}}, {"class_name": "BatchNormalization", "inbound_nodes": [[["convolution2d_329", 0, 0]]], "name": "batchnormalization_331", "config": {"mode": 0, "gamma_regularizer": null, "momentum": 0.99, "name": "batchnormalization_331", "beta_regularizer": null, "trainable": false, "epsilon": 1e-05, "axis": 3}}, {"class_name": "Convolution2D", "inbound_nodes": [[["batchnormalization_326", 0, 0]]], "name": "convolution2d_325", "config": {"trainable": false, "b_regularizer": null, "name": "convolution2d_325", "init": "glorot_uniform", "b_constraint": null, "subsample": [1, 1], "border_mode": "same", "nb_filter": 160, "W_regularizer": null, "W_constraint": null, "activity_regularizer": null, "activation": "relu", "dim_ordering": "tf", "nb_row": 1, "bias": true, "nb_col": 7}}, {"class_name": "Convolution2D", "inbound_nodes": [[["batchnormalization_331", 0, 0]]], "name": "convolution2d_330", "config": {"trainable": false, "b_regularizer": null, "name": "convolution2d_330", "init": "glorot_uniform", "b_constraint": null, "subsample": [1, 1], "border_mode": "same", "nb_filter": 160, "W_regularizer": null, "W_constraint": null, "activity_regularizer": null, "activation": "relu", "dim_ordering": "tf", "nb_row": 7, "bias": true, "nb_col": 1}}, {"class_name": "BatchNormalization", "inbound_nodes": [[["convolution2d_325", 0, 0]]], "name": "batchnormalization_327", "config": {"mode": 0, "gamma_regularizer": null, "momentum": 0.99, "name": "batchnormalization_327", "beta_regularizer": null, "trainable": false, "epsilon": 1e-05, "axis": 3}}, {"class_name": "BatchNormalization", "inbound_nodes": [[["convolution2d_330", 0, 0]]], "name": "batchnormalization_332", "config": {"mode": 0, "gamma_regularizer": null, "momentum": 0.99, "name": "batchnormalization_332", "beta_regularizer": null, "trainable": false, "epsilon": 1e-05, "axis": 3}}, {"class_name": "AveragePooling2D", "inbound_nodes": [[["mixed4", 0, 0]]], "name": "averagepooling2d_35", "config": {"pool_size": [3, 3], "trainable": false, "name": "averagepooling2d_35", "border_mode": "same", "strides": [1, 1], "dim_ordering": "tf"}}, {"class_name": "Convolution2D", "inbound_nodes": [[["mixed4", 0, 0]]], "name": "convolution2d_323", "config": {"trainable": false, "b_regularizer": null, "name": "convolution2d_323", "init": "glorot_uniform", "b_constraint": null, "subsample": [1, 1], "border_mode": "same", "nb_filter": 192, "W_regularizer": null, "W_constraint": null, "activity_regularizer": null, "activation": "relu", "dim_ordering": "tf", "nb_row": 1, "bias": true, "nb_col": 1}}, {"class_name": "Convolution2D", "inbound_nodes": [[["batchnormalization_327", 0, 0]]], "name": "convolution2d_326", "config": {"trainable": false, "b_regularizer": null, "name": "convolution2d_326", "init": "glorot_uniform", "b_constraint": null, "subsample": [1, 1], "border_mode": "same", "nb_filter": 192, "W_regularizer": null, "W_constraint": null, "activity_regularizer": null, "activation": "relu", "dim_ordering": "tf", "nb_row": 7, "bias": true, "nb_col": 1}}, {"class_name": "Convolution2D", "inbound_nodes": [[["batchnormalization_332", 0, 0]]], "name": "convolution2d_331", "config": {"trainable": false, "b_regularizer": null, "name": "convolution2d_331", "init": "glorot_uniform", "b_constraint": null, "subsample": [1, 1], "border_mode": "same", "nb_filter": 192, "W_regularizer": null, "W_constraint": null, "activity_regularizer": null, "activation": "relu", "dim_ordering": "tf", "nb_row": 1, "bias": true, "nb_col": 7}}, {"class_name": "Convolution2D", "inbound_nodes": [[["averagepooling2d_35", 0, 0]]], "name": "convolution2d_332", "config": {"trainable": false, "b_regularizer": null, "name": "convolution2d_332", "init": "glorot_uniform", "b_constraint": null, "subsample": [1, 1], "border_mode": "same", "nb_filter": 192, "W_regularizer": null, "W_constraint": null, "activity_regularizer": null, "activation": "relu", "dim_ordering": "tf", "nb_row": 1, "bias": true, "nb_col": 1}}, {"class_name": "BatchNormalization", "inbound_nodes": [[["convolution2d_323", 0, 0]]], "name": "batchnormalization_325", "config": {"mode": 0, "gamma_regularizer": null, "momentum": 0.99, "name": "batchnormalization_325", "beta_regularizer": null, "trainable": false, "epsilon": 1e-05, "axis": 3}}, {"class_name": "BatchNormalization", "inbound_nodes": [[["convolution2d_326", 0, 0]]], "name": "batchnormalization_328", "config": {"mode": 0, "gamma_regularizer": null, "momentum": 0.99, "name": "batchnormalization_328", "beta_regularizer": null, "trainable": false, "epsilon": 1e-05, "axis": 3}}, {"class_name": "BatchNormalization", "inbound_nodes": [[["convolution2d_331", 0, 0]]], "name": "batchnormalization_333", "config": {"mode": 0, "gamma_regularizer": null, "momentum": 0.99, "name": "batchnormalization_333", "beta_regularizer": null, "trainable": false, "epsilon": 1e-05, "axis": 3}}, {"class_name": "BatchNormalization", "inbound_nodes": [[["convolution2d_332", 0, 0]]], "name": "batchnormalization_334", "config": {"mode": 0, "gamma_regularizer": null, "momentum": 0.99, "name": "batchnormalization_334", "beta_regularizer": null, "trainable": false, "epsilon": 1e-05, "axis": 3}}, {"class_name": "Merge", "inbound_nodes": [[["batchnormalization_325", 0, 0], ["batchnormalization_328", 0, 0], ["batchnormalization_333", 0, 0], ["batchnormalization_334", 0, 0]]], "name": "mixed5", "config": {"mode": "concat", "arguments": {}, "output_mask": null, "output_mask_type": "raw", "concat_axis": 3, "dot_axes": -1, "output_shape_type": "raw", "output_shape": null, "mode_type": "raw", "name": "mixed5"}}, {"class_name": "Convolution2D", "inbound_nodes": [[["mixed5", 0, 0]]], "name": "convolution2d_337", "config": {"trainable": true, "b_regularizer": null, "name": "convolution2d_337", "init": "glorot_uniform", "b_constraint": null, "subsample": [1, 1], "border_mode": "same", "nb_filter": 160, "W_regularizer": null, "W_constraint": null, "activity_regularizer": null, "activation": "relu", "dim_ordering": "tf", "nb_row": 1, "bias": true, "nb_col": 1}}, {"class_name": "BatchNormalization", "inbound_nodes": [[["convolution2d_337", 0, 0]]], "name": "batchnormalization_339", "config": {"mode": 0, "gamma_regularizer": null, "momentum": 0.99, "name": "batchnormalization_339", "beta_regularizer": null, "trainable": true, "epsilon": 1e-05, "axis": 3}}, {"class_name": "Convolution2D", "inbound_nodes": [[["batchnormalization_339", 0, 0]]], "name": "convolution2d_338", "config": {"trainable": true, "b_regularizer": null, "name": "convolution2d_338", "init": "glorot_uniform", "b_constraint": null, "subsample": [1, 1], "border_mode": "same", "nb_filter": 160, "W_regularizer": null, "W_constraint": null, "activity_regularizer": null, "activation": "relu", "dim_ordering": "tf", "nb_row": 7, "bias": true, "nb_col": 1}}, {"class_name": "BatchNormalization", "inbound_nodes": [[["convolution2d_338", 0, 0]]], "name": "batchnormalization_340", "config": {"mode": 0, "gamma_regularizer": null, "momentum": 0.99, "name": "batchnormalization_340", "beta_regularizer": null, "trainable": true, "epsilon": 1e-05, "axis": 3}}, {"class_name": "Convolution2D", "inbound_nodes": [[["mixed5", 0, 0]]], "name": "convolution2d_334", "config": {"trainable": true, "b_regularizer": null, "name": "convolution2d_334", "init": "glorot_uniform", "b_constraint": null, "subsample": [1, 1], "border_mode": "same", "nb_filter": 160, "W_regularizer": null, "W_constraint": null, "activity_regularizer": null, "activation": "relu", "dim_ordering": "tf", "nb_row": 1, "bias": true, "nb_col": 1}}, {"class_name": "Convolution2D", "inbound_nodes": [[["batchnormalization_340", 0, 0]]], "name": "convolution2d_339", "config": {"trainable": true, "b_regularizer": null, "name": "convolution2d_339", "init": "glorot_uniform", "b_constraint": null, "subsample": [1, 1], "border_mode": "same", "nb_filter": 160, "W_regularizer": null, "W_constraint": null, "activity_regularizer": null, "activation": "relu", "dim_ordering": "tf", "nb_row": 1, "bias": true, "nb_col": 7}}, {"class_name": "BatchNormalization", "inbound_nodes": [[["convolution2d_334", 0, 0]]], "name": "batchnormalization_336", "config": {"mode": 0, "gamma_regularizer": null, "momentum": 0.99, "name": "batchnormalization_336", "beta_regularizer": null, "trainable": true, "epsilon": 1e-05, "axis": 3}}, {"class_name": "BatchNormalization", "inbound_nodes": [[["convolution2d_339", 0, 0]]], "name": "batchnormalization_341", "config": {"mode": 0, "gamma_regularizer": null, "momentum": 0.99, "name": "batchnormalization_341", "beta_regularizer": null, "trainable": true, "epsilon": 1e-05, "axis": 3}}, {"class_name": "Convolution2D", "inbound_nodes": [[["batchnormalization_336", 0, 0]]], "name": "convolution2d_335", "config": {"trainable": true, "b_regularizer": null, "name": "convolution2d_335", "init": "glorot_uniform", "b_constraint": null, "subsample": [1, 1], "border_mode": "same", "nb_filter": 160, "W_regularizer": null, "W_constraint": null, "activity_regularizer": null, "activation": "relu", "dim_ordering": "tf", "nb_row": 1, "bias": true, "nb_col": 7}}, {"class_name": "Convolution2D", "inbound_nodes": [[["batchnormalization_341", 0, 0]]], "name": "convolution2d_340", "config": {"trainable": true, "b_regularizer": null, "name": "convolution2d_340", "init": "glorot_uniform", "b_constraint": null, "subsample": [1, 1], "border_mode": "same", "nb_filter": 160, "W_regularizer": null, "W_constraint": null, "activity_regularizer": null, "activation": "relu", "dim_ordering": "tf", "nb_row": 7, "bias": true, "nb_col": 1}}, {"class_name": "BatchNormalization", "inbound_nodes": [[["convolution2d_335", 0, 0]]], "name": "batchnormalization_337", "config": {"mode": 0, "gamma_regularizer": null, "momentum": 0.99, "name": "batchnormalization_337", "beta_regularizer": null, "trainable": true, "epsilon": 1e-05, "axis": 3}}, {"class_name": "BatchNormalization", "inbound_nodes": [[["convolution2d_340", 0, 0]]], "name": "batchnormalization_342", "config": {"mode": 0, "gamma_regularizer": null, "momentum": 0.99, "name": "batchnormalization_342", "beta_regularizer": null, "trainable": true, "epsilon": 1e-05, "axis": 3}}, {"class_name": "AveragePooling2D", "inbound_nodes": [[["mixed5", 0, 0]]], "name": "averagepooling2d_36", "config": {"pool_size": [3, 3], "trainable": true, "name": "averagepooling2d_36", "border_mode": "same", "strides": [1, 1], "dim_ordering": "tf"}}, {"class_name": "Convolution2D", "inbound_nodes": [[["mixed5", 0, 0]]], "name": "convolution2d_333", "config": {"trainable": true, "b_regularizer": null, "name": "convolution2d_333", "init": "glorot_uniform", "b_constraint": null, "subsample": [1, 1], "border_mode": "same", "nb_filter": 192, "W_regularizer": null, "W_constraint": null, "activity_regularizer": null, "activation": "relu", "dim_ordering": "tf", "nb_row": 1, "bias": true, "nb_col": 1}}, {"class_name": "Convolution2D", "inbound_nodes": [[["batchnormalization_337", 0, 0]]], "name": "convolution2d_336", "config": {"trainable": true, "b_regularizer": null, "name": "convolution2d_336", "init": "glorot_uniform", "b_constraint": null, "subsample": [1, 1], "border_mode": "same", "nb_filter": 192, "W_regularizer": null, "W_constraint": null, "activity_regularizer": null, "activation": "relu", "dim_ordering": "tf", "nb_row": 7, "bias": true, "nb_col": 1}}, {"class_name": "Convolution2D", "inbound_nodes": [[["batchnormalization_342", 0, 0]]], "name": "convolution2d_341", "config": {"trainable": true, "b_regularizer": null, "name": "convolution2d_341", "init": "glorot_uniform", "b_constraint": null, "subsample": [1, 1], "border_mode": "same", "nb_filter": 192, "W_regularizer": null, "W_constraint": null, "activity_regularizer": null, "activation": "relu", "dim_ordering": "tf", "nb_row": 1, "bias": true, "nb_col": 7}}, {"class_name": "Convolution2D", "inbound_nodes": [[["averagepooling2d_36", 0, 0]]], "name": "convolution2d_342", "config": {"trainable": true, "b_regularizer": null, "name": "convolution2d_342", "init": "glorot_uniform", "b_constraint": null, "subsample": [1, 1], "border_mode": "same", "nb_filter": 192, "W_regularizer": null, "W_constraint": null, "activity_regularizer": null, "activation": "relu", "dim_ordering": "tf", "nb_row": 1, "bias": true, "nb_col": 1}}, {"class_name": "BatchNormalization", "inbound_nodes": [[["convolution2d_333", 0, 0]]], "name": "batchnormalization_335", "config": {"mode": 0, "gamma_regularizer": null, "momentum": 0.99, "name": "batchnormalization_335", "beta_regularizer": null, "trainable": true, "epsilon": 1e-05, "axis": 3}}, {"class_name": "BatchNormalization", "inbound_nodes": [[["convolution2d_336", 0, 0]]], "name": "batchnormalization_338", "config": {"mode": 0, "gamma_regularizer": null, "momentum": 0.99, "name": "batchnormalization_338", "beta_regularizer": null, "trainable": true, "epsilon": 1e-05, "axis": 3}}, {"class_name": "BatchNormalization", "inbound_nodes": [[["convolution2d_341", 0, 0]]], "name": "batchnormalization_343", "config": {"mode": 0, "gamma_regularizer": null, "momentum": 0.99, "name": "batchnormalization_343", "beta_regularizer": null, "trainable": true, "epsilon": 1e-05, "axis": 3}}, {"class_name": "BatchNormalization", "inbound_nodes": [[["convolution2d_342", 0, 0]]], "name": "batchnormalization_344", "config": {"mode": 0, "gamma_regularizer": null, "momentum": 0.99, "name": "batchnormalization_344", "beta_regularizer": null, "trainable": true, "epsilon": 1e-05, "axis": 3}}, {"class_name": "Merge", "inbound_nodes": [[["batchnormalization_335", 0, 0], ["batchnormalization_338", 0, 0], ["batchnormalization_343", 0, 0], ["batchnormalization_344", 0, 0]]], "name": "mixed6", "config": {"mode": "concat", "arguments": {}, "output_mask": null, "output_mask_type": "raw", "concat_axis": 3, "dot_axes": -1, "output_shape_type": "raw", "output_shape": null, "mode_type": "raw", "name": "mixed6"}}, {"class_name": "Convolution2D", "inbound_nodes": [[["mixed6", 0, 0]]], "name": "convolution2d_347", "config": {"trainable": true, "b_regularizer": null, "name": "convolution2d_347", "init": "glorot_uniform", "b_constraint": null, "subsample": [1, 1], "border_mode": "same", "nb_filter": 160, "W_regularizer": null, "W_constraint": null, "activity_regularizer": null, "activation": "relu", "dim_ordering": "tf", "nb_row": 1, "bias": true, "nb_col": 1}}, {"class_name": "BatchNormalization", "inbound_nodes": [[["convolution2d_347", 0, 0]]], "name": "batchnormalization_349", "config": {"mode": 0, "gamma_regularizer": null, "momentum": 0.99, "name": "batchnormalization_349", "beta_regularizer": null, "trainable": true, "epsilon": 1e-05, "axis": 3}}, {"class_name": "Convolution2D", "inbound_nodes": [[["batchnormalization_349", 0, 0]]], "name": "convolution2d_348", "config": {"trainable": true, "b_regularizer": null, "name": "convolution2d_348", "init": "glorot_uniform", "b_constraint": null, "subsample": [1, 1], "border_mode": "same", "nb_filter": 192, "W_regularizer": null, "W_constraint": null, "activity_regularizer": null, "activation": "relu", "dim_ordering": "tf", "nb_row": 7, "bias": true, "nb_col": 1}}, {"class_name": "BatchNormalization", "inbound_nodes": [[["convolution2d_348", 0, 0]]], "name": "batchnormalization_350", "config": {"mode": 0, "gamma_regularizer": null, "momentum": 0.99, "name": "batchnormalization_350", "beta_regularizer": null, "trainable": true, "epsilon": 1e-05, "axis": 3}}, {"class_name": "Convolution2D", "inbound_nodes": [[["mixed6", 0, 0]]], "name": "convolution2d_344", "config": {"trainable": true, "b_regularizer": null, "name": "convolution2d_344", "init": "glorot_uniform", "b_constraint": null, "subsample": [1, 1], "border_mode": "same", "nb_filter": 192, "W_regularizer": null, "W_constraint": null, "activity_regularizer": null, "activation": "relu", "dim_ordering": "tf", "nb_row": 1, "bias": true, "nb_col": 1}}, {"class_name": "Convolution2D", "inbound_nodes": [[["batchnormalization_350", 0, 0]]], "name": "convolution2d_349", "config": {"trainable": true, "b_regularizer": null, "name": "convolution2d_349", "init": "glorot_uniform", "b_constraint": null, "subsample": [1, 1], "border_mode": "same", "nb_filter": 192, "W_regularizer": null, "W_constraint": null, "activity_regularizer": null, "activation": "relu", "dim_ordering": "tf", "nb_row": 1, "bias": true, "nb_col": 7}}, {"class_name": "BatchNormalization", "inbound_nodes": [[["convolution2d_344", 0, 0]]], "name": "batchnormalization_346", "config": {"mode": 0, "gamma_regularizer": null, "momentum": 0.99, "name": "batchnormalization_346", "beta_regularizer": null, "trainable": true, "epsilon": 1e-05, "axis": 3}}, {"class_name": "BatchNormalization", "inbound_nodes": [[["convolution2d_349", 0, 0]]], "name": "batchnormalization_351", "config": {"mode": 0, "gamma_regularizer": null, "momentum": 0.99, "name": "batchnormalization_351", "beta_regularizer": null, "trainable": true, "epsilon": 1e-05, "axis": 3}}, {"class_name": "Convolution2D", "inbound_nodes": [[["batchnormalization_346", 0, 0]]], "name": "convolution2d_345", "config": {"trainable": true, "b_regularizer": null, "name": "convolution2d_345", "init": "glorot_uniform", "b_constraint": null, "subsample": [1, 1], "border_mode": "same", "nb_filter": 192, "W_regularizer": null, "W_constraint": null, "activity_regularizer": null, "activation": "relu", "dim_ordering": "tf", "nb_row": 1, "bias": true, "nb_col": 7}}, {"class_name": "Convolution2D", "inbound_nodes": [[["batchnormalization_351", 0, 0]]], "name": "convolution2d_350", "config": {"trainable": true, "b_regularizer": null, "name": "convolution2d_350", "init": "glorot_uniform", "b_constraint": null, "subsample": [1, 1], "border_mode": "same", "nb_filter": 192, "W_regularizer": null, "W_constraint": null, "activity_regularizer": null, "activation": "relu", "dim_ordering": "tf", "nb_row": 7, "bias": true, "nb_col": 1}}, {"class_name": "BatchNormalization", "inbound_nodes": [[["convolution2d_345", 0, 0]]], "name": "batchnormalization_347", "config": {"mode": 0, "gamma_regularizer": null, "momentum": 0.99, "name": "batchnormalization_347", "beta_regularizer": null, "trainable": true, "epsilon": 1e-05, "axis": 3}}, {"class_name": "BatchNormalization", "inbound_nodes": [[["convolution2d_350", 0, 0]]], "name": "batchnormalization_352", "config": {"mode": 0, "gamma_regularizer": null, "momentum": 0.99, "name": "batchnormalization_352", "beta_regularizer": null, "trainable": true, "epsilon": 1e-05, "axis": 3}}, {"class_name": "AveragePooling2D", "inbound_nodes": [[["mixed6", 0, 0]]], "name": "averagepooling2d_37", "config": {"pool_size": [3, 3], "trainable": true, "name": "averagepooling2d_37", "border_mode": "same", "strides": [1, 1], "dim_ordering": "tf"}}, {"class_name": "Convolution2D", "inbound_nodes": [[["mixed6", 0, 0]]], "name": "convolution2d_343", "config": {"trainable": true, "b_regularizer": null, "name": "convolution2d_343", "init": "glorot_uniform", "b_constraint": null, "subsample": [1, 1], "border_mode": "same", "nb_filter": 192, "W_regularizer": null, "W_constraint": null, "activity_regularizer": null, "activation": "relu", "dim_ordering": "tf", "nb_row": 1, "bias": true, "nb_col": 1}}, {"class_name": "Convolution2D", "inbound_nodes": [[["batchnormalization_347", 0, 0]]], "name": "convolution2d_346", "config": {"trainable": true, "b_regularizer": null, "name": "convolution2d_346", "init": "glorot_uniform", "b_constraint": null, "subsample": [1, 1], "border_mode": "same", "nb_filter": 192, "W_regularizer": null, "W_constraint": null, "activity_regularizer": null, "activation": "relu", "dim_ordering": "tf", "nb_row": 7, "bias": true, "nb_col": 1}}, {"class_name": "Convolution2D", "inbound_nodes": [[["batchnormalization_352", 0, 0]]], "name": "convolution2d_351", "config": {"trainable": true, "b_regularizer": null, "name": "convolution2d_351", "init": "glorot_uniform", "b_constraint": null, "subsample": [1, 1], "border_mode": "same", "nb_filter": 192, "W_regularizer": null, "W_constraint": null, "activity_regularizer": null, "activation": "relu", "dim_ordering": "tf", "nb_row": 1, "bias": true, "nb_col": 7}}, {"class_name": "Convolution2D", "inbound_nodes": [[["averagepooling2d_37", 0, 0]]], "name": "convolution2d_352", "config": {"trainable": true, "b_regularizer": null, "name": "convolution2d_352", "init": "glorot_uniform", "b_constraint": null, "subsample": [1, 1], "border_mode": "same", "nb_filter": 192, "W_regularizer": null, "W_constraint": null, "activity_regularizer": null, "activation": "relu", "dim_ordering": "tf", "nb_row": 1, "bias": true, "nb_col": 1}}, {"class_name": "BatchNormalization", "inbound_nodes": [[["convolution2d_343", 0, 0]]], "name": "batchnormalization_345", "config": {"mode": 0, "gamma_regularizer": null, "momentum": 0.99, "name": "batchnormalization_345", "beta_regularizer": null, "trainable": true, "epsilon": 1e-05, "axis": 3}}, {"class_name": "BatchNormalization", "inbound_nodes": [[["convolution2d_346", 0, 0]]], "name": "batchnormalization_348", "config": {"mode": 0, "gamma_regularizer": null, "momentum": 0.99, "name": "batchnormalization_348", "beta_regularizer": null, "trainable": true, "epsilon": 1e-05, "axis": 3}}, {"class_name": "BatchNormalization", "inbound_nodes": [[["convolution2d_351", 0, 0]]], "name": "batchnormalization_353", "config": {"mode": 0, "gamma_regularizer": null, "momentum": 0.99, "name": "batchnormalization_353", "beta_regularizer": null, "trainable": true, "epsilon": 1e-05, "axis": 3}}, {"class_name": "BatchNormalization", "inbound_nodes": [[["convolution2d_352", 0, 0]]], "name": "batchnormalization_354", "config": {"mode": 0, "gamma_regularizer": null, "momentum": 0.99, "name": "batchnormalization_354", "beta_regularizer": null, "trainable": true, "epsilon": 1e-05, "axis": 3}}, {"class_name": "Merge", "inbound_nodes": [[["batchnormalization_345", 0, 0], ["batchnormalization_348", 0, 0], ["batchnormalization_353", 0, 0], ["batchnormalization_354", 0, 0]]], "name": "mixed7", "config": {"mode": "concat", "arguments": {}, "output_mask": null, "output_mask_type": "raw", "concat_axis": 3, "dot_axes": -1, "output_shape_type": "raw", "output_shape": null, "mode_type": "raw", "name": "mixed7"}}, {"class_name": "Convolution2D", "inbound_nodes": [[["mixed7", 0, 0]]], "name": "convolution2d_355", "config": {"trainable": true, "b_regularizer": null, "name": "convolution2d_355", "init": "glorot_uniform", "b_constraint": null, "subsample": [1, 1], "border_mode": "same", "nb_filter": 192, "W_regularizer": null, "W_constraint": null, "activity_regularizer": null, "activation": "relu", "dim_ordering": "tf", "nb_row": 1, "bias": true, "nb_col": 1}}, {"class_name": "BatchNormalization", "inbound_nodes": [[["convolution2d_355", 0, 0]]], "name": "batchnormalization_357", "config": {"mode": 0, "gamma_regularizer": null, "momentum": 0.99, "name": "batchnormalization_357", "beta_regularizer": null, "trainable": true, "epsilon": 1e-05, "axis": 3}}, {"class_name": "Convolution2D", "inbound_nodes": [[["batchnormalization_357", 0, 0]]], "name": "convolution2d_356", "config": {"trainable": true, "b_regularizer": null, "name": "convolution2d_356", "init": "glorot_uniform", "b_constraint": null, "subsample": [1, 1], "border_mode": "same", "nb_filter": 192, "W_regularizer": null, "W_constraint": null, "activity_regularizer": null, "activation": "relu", "dim_ordering": "tf", "nb_row": 1, "bias": true, "nb_col": 7}}, {"class_name": "BatchNormalization", "inbound_nodes": [[["convolution2d_356", 0, 0]]], "name": "batchnormalization_358", "config": {"mode": 0, "gamma_regularizer": null, "momentum": 0.99, "name": "batchnormalization_358", "beta_regularizer": null, "trainable": true, "epsilon": 1e-05, "axis": 3}}, {"class_name": "Convolution2D", "inbound_nodes": [[["mixed7", 0, 0]]], "name": "convolution2d_353", "config": {"trainable": true, "b_regularizer": null, "name": "convolution2d_353", "init": "glorot_uniform", "b_constraint": null, "subsample": [1, 1], "border_mode": "same", "nb_filter": 192, "W_regularizer": null, "W_constraint": null, "activity_regularizer": null, "activation": "relu", "dim_ordering": "tf", "nb_row": 1, "bias": true, "nb_col": 1}}, {"class_name": "Convolution2D", "inbound_nodes": [[["batchnormalization_358", 0, 0]]], "name": "convolution2d_357", "config": {"trainable": true, "b_regularizer": null, "name": "convolution2d_357", "init": "glorot_uniform", "b_constraint": null, "subsample": [1, 1], "border_mode": "same", "nb_filter": 192, "W_regularizer": null, "W_constraint": null, "activity_regularizer": null, "activation": "relu", "dim_ordering": "tf", "nb_row": 7, "bias": true, "nb_col": 1}}, {"class_name": "BatchNormalization", "inbound_nodes": [[["convolution2d_353", 0, 0]]], "name": "batchnormalization_355", "config": {"mode": 0, "gamma_regularizer": null, "momentum": 0.99, "name": "batchnormalization_355", "beta_regularizer": null, "trainable": true, "epsilon": 1e-05, "axis": 3}}, {"class_name": "BatchNormalization", "inbound_nodes": [[["convolution2d_357", 0, 0]]], "name": "batchnormalization_359", "config": {"mode": 0, "gamma_regularizer": null, "momentum": 0.99, "name": "batchnormalization_359", "beta_regularizer": null, "trainable": true, "epsilon": 1e-05, "axis": 3}}, {"class_name": "Convolution2D", "inbound_nodes": [[["batchnormalization_355", 0, 0]]], "name": "convolution2d_354", "config": {"trainable": true, "b_regularizer": null, "name": "convolution2d_354", "init": "glorot_uniform", "b_constraint": null, "subsample": [2, 2], "border_mode": "valid", "nb_filter": 320, "W_regularizer": null, "W_constraint": null, "activity_regularizer": null, "activation": "relu", "dim_ordering": "tf", "nb_row": 3, "bias": true, "nb_col": 3}}, {"class_name": "Convolution2D", "inbound_nodes": [[["batchnormalization_359", 0, 0]]], "name": "convolution2d_358", "config": {"trainable": true, "b_regularizer": null, "name": "convolution2d_358", "init": "glorot_uniform", "b_constraint": null, "subsample": [2, 2], "border_mode": "valid", "nb_filter": 192, "W_regularizer": null, "W_constraint": null, "activity_regularizer": null, "activation": "relu", "dim_ordering": "tf", "nb_row": 3, "bias": true, "nb_col": 3}}, {"class_name": "BatchNormalization", "inbound_nodes": [[["convolution2d_354", 0, 0]]], "name": "batchnormalization_356", "config": {"mode": 0, "gamma_regularizer": null, "momentum": 0.99, "name": "batchnormalization_356", "beta_regularizer": null, "trainable": true, "epsilon": 1e-05, "axis": 3}}, {"class_name": "BatchNormalization", "inbound_nodes": [[["convolution2d_358", 0, 0]]], "name": "batchnormalization_360", "config": {"mode": 0, "gamma_regularizer": null, "momentum": 0.99, "name": "batchnormalization_360", "beta_regularizer": null, "trainable": true, "epsilon": 1e-05, "axis": 3}}, {"class_name": "AveragePooling2D", "inbound_nodes": [[["mixed7", 0, 0]]], "name": "averagepooling2d_38", "config": {"pool_size": [3, 3], "trainable": true, "name": "averagepooling2d_38", "border_mode": "valid", "strides": [2, 2], "dim_ordering": "tf"}}, {"class_name": "Merge", "inbound_nodes": [[["batchnormalization_356", 0, 0], ["batchnormalization_360", 0, 0], ["averagepooling2d_38", 0, 0]]], "name": "mixed8", "config": {"mode": "concat", "arguments": {}, "output_mask": null, "output_mask_type": "raw", "concat_axis": 3, "dot_axes": -1, "output_shape_type": "raw", "output_shape": null, "mode_type": "raw", "name": "mixed8"}}, {"class_name": "Convolution2D", "inbound_nodes": [[["mixed8", 0, 0]]], "name": "convolution2d_363", "config": {"trainable": true, "b_regularizer": null, "name": "convolution2d_363", "init": "glorot_uniform", "b_constraint": null, "subsample": [1, 1], "border_mode": "same", "nb_filter": 448, "W_regularizer": null, "W_constraint": null, "activity_regularizer": null, "activation": "relu", "dim_ordering": "tf", "nb_row": 1, "bias": true, "nb_col": 1}}, {"class_name": "BatchNormalization", "inbound_nodes": [[["convolution2d_363", 0, 0]]], "name": "batchnormalization_365", "config": {"mode": 0, "gamma_regularizer": null, "momentum": 0.99, "name": "batchnormalization_365", "beta_regularizer": null, "trainable": true, "epsilon": 1e-05, "axis": 3}}, {"class_name": "Convolution2D", "inbound_nodes": [[["mixed8", 0, 0]]], "name": "convolution2d_360", "config": {"trainable": true, "b_regularizer": null, "name": "convolution2d_360", "init": "glorot_uniform", "b_constraint": null, "subsample": [1, 1], "border_mode": "same", "nb_filter": 384, "W_regularizer": null, "W_constraint": null, "activity_regularizer": null, "activation": "relu", "dim_ordering": "tf", "nb_row": 1, "bias": true, "nb_col": 1}}, {"class_name": "Convolution2D", "inbound_nodes": [[["batchnormalization_365", 0, 0]]], "name": "convolution2d_364", "config": {"trainable": true, "b_regularizer": null, "name": "convolution2d_364", "init": "glorot_uniform", "b_constraint": null, "subsample": [1, 1], "border_mode": "same", "nb_filter": 384, "W_regularizer": null, "W_constraint": null, "activity_regularizer": null, "activation": "relu", "dim_ordering": "tf", "nb_row": 3, "bias": true, "nb_col": 3}}, {"class_name": "BatchNormalization", "inbound_nodes": [[["convolution2d_360", 0, 0]]], "name": "batchnormalization_362", "config": {"mode": 0, "gamma_regularizer": null, "momentum": 0.99, "name": "batchnormalization_362", "beta_regularizer": null, "trainable": true, "epsilon": 1e-05, "axis": 3}}, {"class_name": "BatchNormalization", "inbound_nodes": [[["convolution2d_364", 0, 0]]], "name": "batchnormalization_366", "config": {"mode": 0, "gamma_regularizer": null, "momentum": 0.99, "name": "batchnormalization_366", "beta_regularizer": null, "trainable": true, "epsilon": 1e-05, "axis": 3}}, {"class_name": "Convolution2D", "inbound_nodes": [[["batchnormalization_362", 0, 0]]], "name": "convolution2d_361", "config": {"trainable": true, "b_regularizer": null, "name": "convolution2d_361", "init": "glorot_uniform", "b_constraint": null, "subsample": [1, 1], "border_mode": "same", "nb_filter": 384, "W_regularizer": null, "W_constraint": null, "activity_regularizer": null, "activation": "relu", "dim_ordering": "tf", "nb_row": 1, "bias": true, "nb_col": 3}}, {"class_name": "Convolution2D", "inbound_nodes": [[["batchnormalization_362", 0, 0]]], "name": "convolution2d_362", "config": {"trainable": true, "b_regularizer": null, "name": "convolution2d_362", "init": "glorot_uniform", "b_constraint": null, "subsample": [1, 1], "border_mode": "same", "nb_filter": 384, "W_regularizer": null, "W_constraint": null, "activity_regularizer": null, "activation": "relu", "dim_ordering": "tf", "nb_row": 3, "bias": true, "nb_col": 1}}, {"class_name": "Convolution2D", "inbound_nodes": [[["batchnormalization_366", 0, 0]]], "name": "convolution2d_365", "config": {"trainable": true, "b_regularizer": null, "name": "convolution2d_365", "init": "glorot_uniform", "b_constraint": null, "subsample": [1, 1], "border_mode": "same", "nb_filter": 384, "W_regularizer": null, "W_constraint": null, "activity_regularizer": null, "activation": "relu", "dim_ordering": "tf", "nb_row": 1, "bias": true, "nb_col": 3}}, {"class_name": "Convolution2D", "inbound_nodes": [[["batchnormalization_366", 0, 0]]], "name": "convolution2d_366", "config": {"trainable": true, "b_regularizer": null, "name": "convolution2d_366", "init": "glorot_uniform", "b_constraint": null, "subsample": [1, 1], "border_mode": "same", "nb_filter": 384, "W_regularizer": null, "W_constraint": null, "activity_regularizer": null, "activation": "relu", "dim_ordering": "tf", "nb_row": 3, "bias": true, "nb_col": 1}}, {"class_name": "AveragePooling2D", "inbound_nodes": [[["mixed8", 0, 0]]], "name": "averagepooling2d_39", "config": {"pool_size": [3, 3], "trainable": true, "name": "averagepooling2d_39", "border_mode": "same", "strides": [1, 1], "dim_ordering": "tf"}}, {"class_name": "Convolution2D", "inbound_nodes": [[["mixed8", 0, 0]]], "name": "convolution2d_359", "config": {"trainable": true, "b_regularizer": null, "name": "convolution2d_359", "init": "glorot_uniform", "b_constraint": null, "subsample": [1, 1], "border_mode": "same", "nb_filter": 320, "W_regularizer": null, "W_constraint": null, "activity_regularizer": null, "activation": "relu", "dim_ordering": "tf", "nb_row": 1, "bias": true, "nb_col": 1}}, {"class_name": "BatchNormalization", "inbound_nodes": [[["convolution2d_361", 0, 0]]], "name": "batchnormalization_363", "config": {"mode": 0, "gamma_regularizer": null, "momentum": 0.99, "name": "batchnormalization_363", "beta_regularizer": null, "trainable": true, "epsilon": 1e-05, "axis": 3}}, {"class_name": "BatchNormalization", "inbound_nodes": [[["convolution2d_362", 0, 0]]], "name": "batchnormalization_364", "config": {"mode": 0, "gamma_regularizer": null, "momentum": 0.99, "name": "batchnormalization_364", "beta_regularizer": null, "trainable": true, "epsilon": 1e-05, "axis": 3}}, {"class_name": "BatchNormalization", "inbound_nodes": [[["convolution2d_365", 0, 0]]], "name": "batchnormalization_367", "config": {"mode": 0, "gamma_regularizer": null, "momentum": 0.99, "name": "batchnormalization_367", "beta_regularizer": null, "trainable": true, "epsilon": 1e-05, "axis": 3}}, {"class_name": "BatchNormalization", "inbound_nodes": [[["convolution2d_366", 0, 0]]], "name": "batchnormalization_368", "config": {"mode": 0, "gamma_regularizer": null, "momentum": 0.99, "name": "batchnormalization_368", "beta_regularizer": null, "trainable": true, "epsilon": 1e-05, "axis": 3}}, {"class_name": "Convolution2D", "inbound_nodes": [[["averagepooling2d_39", 0, 0]]], "name": "convolution2d_367", "config": {"trainable": true, "b_regularizer": null, "name": "convolution2d_367", "init": "glorot_uniform", "b_constraint": null, "subsample": [1, 1], "border_mode": "same", "nb_filter": 192, "W_regularizer": null, "W_constraint": null, "activity_regularizer": null, "activation": "relu", "dim_ordering": "tf", "nb_row": 1, "bias": true, "nb_col": 1}}, {"class_name": "BatchNormalization", "inbound_nodes": [[["convolution2d_359", 0, 0]]], "name": "batchnormalization_361", "config": {"mode": 0, "gamma_regularizer": null, "momentum": 0.99, "name": "batchnormalization_361", "beta_regularizer": null, "trainable": true, "epsilon": 1e-05, "axis": 3}}, {"class_name": "Merge", "inbound_nodes": [[["batchnormalization_363", 0, 0], ["batchnormalization_364", 0, 0]]], "name": "mixed9_0", "config": {"mode": "concat", "arguments": {}, "output_mask": null, "output_mask_type": "raw", "concat_axis": 3, "dot_axes": -1, "output_shape_type": "raw", "output_shape": null, "mode_type": "raw", "name": "mixed9_0"}}, {"class_name": "Merge", "inbound_nodes": [[["batchnormalization_367", 0, 0], ["batchnormalization_368", 0, 0]]], "name": "merge_7", "config": {"mode": "concat", "arguments": {}, "output_mask": null, "output_mask_type": "raw", "concat_axis": 3, "dot_axes": -1, "output_shape_type": "raw", "output_shape": null, "mode_type": "raw", "name": "merge_7"}}, {"class_name": "BatchNormalization", "inbound_nodes": [[["convolution2d_367", 0, 0]]], "name": "batchnormalization_369", "config": {"mode": 0, "gamma_regularizer": null, "momentum": 0.99, "name": "batchnormalization_369", "beta_regularizer": null, "trainable": true, "epsilon": 1e-05, "axis": 3}}, {"class_name": "Merge", "inbound_nodes": [[["batchnormalization_361", 0, 0], ["mixed9_0", 0, 0], ["merge_7", 0, 0], ["batchnormalization_369", 0, 0]]], "name": "mixed9", "config": {"mode": "concat", "arguments": {}, "output_mask": null, "output_mask_type": "raw", "concat_axis": 3, "dot_axes": -1, "output_shape_type": "raw", "output_shape": null, "mode_type": "raw", "name": "mixed9"}}, {"class_name": "Convolution2D", "inbound_nodes": [[["mixed9", 0, 0]]], "name": "convolution2d_372", "config": {"trainable": true, "b_regularizer": null, "name": "convolution2d_372", "init": "glorot_uniform", "b_constraint": null, "subsample": [1, 1], "border_mode": "same", "nb_filter": 448, "W_regularizer": null, "W_constraint": null, "activity_regularizer": null, "activation": "relu", "dim_ordering": "tf", "nb_row": 1, "bias": true, "nb_col": 1}}, {"class_name": "BatchNormalization", "inbound_nodes": [[["convolution2d_372", 0, 0]]], "name": "batchnormalization_374", "config": {"mode": 0, "gamma_regularizer": null, "momentum": 0.99, "name": "batchnormalization_374", "beta_regularizer": null, "trainable": true, "epsilon": 1e-05, "axis": 3}}, {"class_name": "Convolution2D", "inbound_nodes": [[["mixed9", 0, 0]]], "name": "convolution2d_369", "config": {"trainable": true, "b_regularizer": null, "name": "convolution2d_369", "init": "glorot_uniform", "b_constraint": null, "subsample": [1, 1], "border_mode": "same", "nb_filter": 384, "W_regularizer": null, "W_constraint": null, "activity_regularizer": null, "activation": "relu", "dim_ordering": "tf", "nb_row": 1, "bias": true, "nb_col": 1}}, {"class_name": "Convolution2D", "inbound_nodes": [[["batchnormalization_374", 0, 0]]], "name": "convolution2d_373", "config": {"trainable": true, "b_regularizer": null, "name": "convolution2d_373", "init": "glorot_uniform", "b_constraint": null, "subsample": [1, 1], "border_mode": "same", "nb_filter": 384, "W_regularizer": null, "W_constraint": null, "activity_regularizer": null, "activation": "relu", "dim_ordering": "tf", "nb_row": 3, "bias": true, "nb_col": 3}}, {"class_name": "BatchNormalization", "inbound_nodes": [[["convolution2d_369", 0, 0]]], "name": "batchnormalization_371", "config": {"mode": 0, "gamma_regularizer": null, "momentum": 0.99, "name": "batchnormalization_371", "beta_regularizer": null, "trainable": true, "epsilon": 1e-05, "axis": 3}}, {"class_name": "BatchNormalization", "inbound_nodes": [[["convolution2d_373", 0, 0]]], "name": "batchnormalization_375", "config": {"mode": 0, "gamma_regularizer": null, "momentum": 0.99, "name": "batchnormalization_375", "beta_regularizer": null, "trainable": true, "epsilon": 1e-05, "axis": 3}}, {"class_name": "Convolution2D", "inbound_nodes": [[["batchnormalization_371", 0, 0]]], "name": "convolution2d_370", "config": {"trainable": true, "b_regularizer": null, "name": "convolution2d_370", "init": "glorot_uniform", "b_constraint": null, "subsample": [1, 1], "border_mode": "same", "nb_filter": 384, "W_regularizer": null, "W_constraint": null, "activity_regularizer": null, "activation": "relu", "dim_ordering": "tf", "nb_row": 1, "bias": true, "nb_col": 3}}, {"class_name": "Convolution2D", "inbound_nodes": [[["batchnormalization_371", 0, 0]]], "name": "convolution2d_371", "config": {"trainable": true, "b_regularizer": null, "name": "convolution2d_371", "init": "glorot_uniform", "b_constraint": null, "subsample": [1, 1], "border_mode": "same", "nb_filter": 384, "W_regularizer": null, "W_constraint": null, "activity_regularizer": null, "activation": "relu", "dim_ordering": "tf", "nb_row": 3, "bias": true, "nb_col": 1}}, {"class_name": "Convolution2D", "inbound_nodes": [[["batchnormalization_375", 0, 0]]], "name": "convolution2d_374", "config": {"trainable": true, "b_regularizer": null, "name": "convolution2d_374", "init": "glorot_uniform", "b_constraint": null, "subsample": [1, 1], "border_mode": "same", "nb_filter": 384, "W_regularizer": null, "W_constraint": null, "activity_regularizer": null, "activation": "relu", "dim_ordering": "tf", "nb_row": 1, "bias": true, "nb_col": 3}}, {"class_name": "Convolution2D", "inbound_nodes": [[["batchnormalization_375", 0, 0]]], "name": "convolution2d_375", "config": {"trainable": true, "b_regularizer": null, "name": "convolution2d_375", "init": "glorot_uniform", "b_constraint": null, "subsample": [1, 1], "border_mode": "same", "nb_filter": 384, "W_regularizer": null, "W_constraint": null, "activity_regularizer": null, "activation": "relu", "dim_ordering": "tf", "nb_row": 3, "bias": true, "nb_col": 1}}, {"class_name": "AveragePooling2D", "inbound_nodes": [[["mixed9", 0, 0]]], "name": "averagepooling2d_40", "config": {"pool_size": [3, 3], "trainable": true, "name": "averagepooling2d_40", "border_mode": "same", "strides": [1, 1], "dim_ordering": "tf"}}, {"class_name": "Convolution2D", "inbound_nodes": [[["mixed9", 0, 0]]], "name": "convolution2d_368", "config": {"trainable": true, "b_regularizer": null, "name": "convolution2d_368", "init": "glorot_uniform", "b_constraint": null, "subsample": [1, 1], "border_mode": "same", "nb_filter": 320, "W_regularizer": null, "W_constraint": null, "activity_regularizer": null, "activation": "relu", "dim_ordering": "tf", "nb_row": 1, "bias": true, "nb_col": 1}}, {"class_name": "BatchNormalization", "inbound_nodes": [[["convolution2d_370", 0, 0]]], "name": "batchnormalization_372", "config": {"mode": 0, "gamma_regularizer": null, "momentum": 0.99, "name": "batchnormalization_372", "beta_regularizer": null, "trainable": true, "epsilon": 1e-05, "axis": 3}}, {"class_name": "BatchNormalization", "inbound_nodes": [[["convolution2d_371", 0, 0]]], "name": "batchnormalization_373", "config": {"mode": 0, "gamma_regularizer": null, "momentum": 0.99, "name": "batchnormalization_373", "beta_regularizer": null, "trainable": true, "epsilon": 1e-05, "axis": 3}}, {"class_name": "BatchNormalization", "inbound_nodes": [[["convolution2d_374", 0, 0]]], "name": "batchnormalization_376", "config": {"mode": 0, "gamma_regularizer": null, "momentum": 0.99, "name": "batchnormalization_376", "beta_regularizer": null, "trainable": true, "epsilon": 1e-05, "axis": 3}}, {"class_name": "BatchNormalization", "inbound_nodes": [[["convolution2d_375", 0, 0]]], "name": "batchnormalization_377", "config": {"mode": 0, "gamma_regularizer": null, "momentum": 0.99, "name": "batchnormalization_377", "beta_regularizer": null, "trainable": true, "epsilon": 1e-05, "axis": 3}}, {"class_name": "Convolution2D", "inbound_nodes": [[["averagepooling2d_40", 0, 0]]], "name": "convolution2d_376", "config": {"trainable": true, "b_regularizer": null, "name": "convolution2d_376", "init": "glorot_uniform", "b_constraint": null, "subsample": [1, 1], "border_mode": "same", "nb_filter": 192, "W_regularizer": null, "W_constraint": null, "activity_regularizer": null, "activation": "relu", "dim_ordering": "tf", "nb_row": 1, "bias": true, "nb_col": 1}}, {"class_name": "BatchNormalization", "inbound_nodes": [[["convolution2d_368", 0, 0]]], "name": "batchnormalization_370", "config": {"mode": 0, "gamma_regularizer": null, "momentum": 0.99, "name": "batchnormalization_370", "beta_regularizer": null, "trainable": true, "epsilon": 1e-05, "axis": 3}}, {"class_name": "Merge", "inbound_nodes": [[["batchnormalization_372", 0, 0], ["batchnormalization_373", 0, 0]]], "name": "mixed9_1", "config": {"mode": "concat", "arguments": {}, "output_mask": null, "output_mask_type": "raw", "concat_axis": 3, "dot_axes": -1, "output_shape_type": "raw", "output_shape": null, "mode_type": "raw", "name": "mixed9_1"}}, {"class_name": "Merge", "inbound_nodes": [[["batchnormalization_376", 0, 0], ["batchnormalization_377", 0, 0]]], "name": "merge_8", "config": {"mode": "concat", "arguments": {}, "output_mask": null, "output_mask_type": "raw", "concat_axis": 3, "dot_axes": -1, "output_shape_type": "raw", "output_shape": null, "mode_type": "raw", "name": "merge_8"}}, {"class_name": "BatchNormalization", "inbound_nodes": [[["convolution2d_376", 0, 0]]], "name": "batchnormalization_378", "config": {"mode": 0, "gamma_regularizer": null, "momentum": 0.99, "name": "batchnormalization_378", "beta_regularizer": null, "trainable": true, "epsilon": 1e-05, "axis": 3}}, {"class_name": "Merge", "inbound_nodes": [[["batchnormalization_370", 0, 0], ["mixed9_1", 0, 0], ["merge_8", 0, 0], ["batchnormalization_378", 0, 0]]], "name": "mixed10", "config": {"mode": "concat", "arguments": {}, "output_mask": null, "output_mask_type": "raw", "concat_axis": 3, "dot_axes": -1, "output_shape_type": "raw", "output_shape": null, "mode_type": "raw", "name": "mixed10"}}, {"class_name": "GlobalAveragePooling2D", "inbound_nodes": [[["mixed10", 0, 0]]], "name": "globalaveragepooling2d_3", "config": {"trainable": true, "name": "globalaveragepooling2d_3", "dim_ordering": "tf"}}, {"class_name": "Dense", "inbound_nodes": [[["globalaveragepooling2d_3", 0, 0]]], "name": "dense_8", "config": {"b_regularizer": null, "name": "dense_8", "init": "glorot_uniform", "b_constraint": null, "output_dim": 100, "input_dim": null, "W_regularizer": null, "activity_regularizer": null, "activation": "linear", "trainable": true, "bias": true, "W_constraint": null}}, {"class_name": "Activation", "inbound_nodes": [[["dense_8", 0, 0]]], "name": "activation_5", "config": {"activation": "relu", "trainable": true, "name": "activation_5"}}, {"class_name": "Dense", "inbound_nodes": [[["activation_5", 0, 0]]], "name": "dense_9", "config": {"b_regularizer": null, "name": "dense_9", "init": "glorot_uniform", "b_constraint": null, "output_dim": 1, "input_dim": null, "W_regularizer": null, "activity_regularizer": null, "activation": "linear", "trainable": true, "bias": true, "W_constraint": null}}], "input_layers": [["input_4", 0, 0]], "output_layers": [["dense_9", 0, 0]], "name": "model_7"}, "keras_version": "1.1.2"}